…
[[  0   0   0   0   0   0   0   0   0   0   2   3   4   1  12   9   5   1
   50 120  65   4   1  13   9   5   1  59  23 109]
 [  0   0   0   0   0   0   0   0   0   2   3   4   1  12   9   5   1  50
  120  65   4   1  13   9   5   1  59  23 109   6]
 [  0   0   0   0   0   0   0   0   0   0   0   0   0   0   2   3  11  18
    5   1  33  34   4   1  13   9   5   1 109 120]]
1006
_________________________________________________________________
Layer (type)                 Output Shape              Param #   
=================================================================
embedding_1 (Embedding)      (None, 29, 50)            50300     
_________________________________________________________________
lstm_1 (LSTM)                (None, 29, 100)           60400     
_________________________________________________________________
lstm_2 (LSTM)                (None, 30)                15720     
_________________________________________________________________
dense_1 (Dense)              (None, 30)                930       
_________________________________________________________________
dropout_1 (Dropout)          (None, 30)                0         
_________________________________________________________________
dense_2 (Dense)              (None, 1006)              31186     
_________________________________________________________________
dropout_2 (Dropout)          (None, 1006)              0         
=================================================================
Total params: 158,536
Trainable params: 158,536
Non-trainable params: 0
_________________________________________________________________
None
Train on 12914 samples, validate on 3229 samples
Epoch 1/150

  256/12914 [..............................] - ETA: 43s - loss: 8.7401 - acc: 0.0000e+00
  512/12914 [>.............................] - ETA: 23s - loss: 9.0349 - acc: 0.0820    
…
